models/digits_classifier.pt (torch, 49383 bytes, 6 tensors)

conv1.weight f4 [6, 1, 3, 3]
000000 f8 48 02 3d 50 e4 98 3e d4 e9 9b 3e e3 84 3e 3d
       0.03180787 0.2986169 0.30451834 0.04651345
000010 51 09 15 3e b1 8c 14 3d a4 ac a6 bd 2a 91 00 3d
       0.14554335 0.036266986 -0.08138397 0.03138844
000020 9a 2a a2 be 8f 86 80 3e 5a d8 8d bd cd 7d 34 3e
       -0.31673127 0.2510266 -0.069260314 0.17626114
000030 c9 74 e8 3e c0 44 1e 3e 33 04 7b 3e 33 7b 81 bd
       0.454016 0.15455914 0.2451332 -0.063223265
000040 0b 81 32 be 29 a9 58 be b5 c6 d6 3d 17 01 aa be
       -0.17432038 -0.2115828 0.10487119 -0.33203956
000050 3a 41 de 3e 9f ba 6b be 0d e9 52 3e d4 8c 65 3e
       0.4340914 -0.23020409 0.20596714 0.22417003
000060 ee 56 a0 3e bb eb 28 3e 21 eb 95 3e 8d b2 b3 be
       0.31316322 0.16496174 0.29280952 -0.3509716
000070 b7 e0 00 3e 9d 8a d2 3e 78 6a 15 3e 4f e6 e7 3e
       0.12585722 0.4112138 0.14591396 0.452929
000080 d9 22 84 be 82 66 62 3c 7e 25 55 3e 93 37 c2 be
       -0.25807837 0.013818385 0.20815083 -0.37933025
000090 df 53 33 be b0 00 10 3e ca 37 c6 3c 28 f0 a2 be
       -0.17512463 0.14062762 0.024196524 -0.3182385
0000a0 6e 93 1e be 63 50 a5 3e 1e ff c3 be f5 a0 f1 3e
       -0.15485927 0.32287893 -0.38280576 0.47193113
0000b0 c7 c2 ac bd fe 28 d9 bd 4b 0e aa be 9b 47 60 3e
       -0.08435588 -0.10603522 -0.3321403 0.21902315
0000c0 90 be 13 be 11 30 7c bd bd 7c 61 3d 3f 07 68 be
       -0.14428163 -0.061569277 0.0550506 -0.22659014
0000d0 0d aa 8a bd 22 a4 26 3e
       -0.06770716 0.16273549

conv1.bias f4 [6]
000000 44 f4 a9 bc 10 45 4c bd 9c e2 34 be b6 cd c7 3e
       -0.020746358 -0.04987055 -0.1766457 0.39024132
000010 f9 b3 aa 3e 7c 36 d7 3e
       0.33340433 0.42033756

conv2.weight f4 [12, 6, 3, 3]
000000 05 40 74 be 0d 44 84 be 2a 17 33 3d 02 02 94 be
       -0.23852547 -0.2583317 0.043723263 -0.28907782
000010 de cd a1 3d d1 49 dc 3d 0e 52 46 3e 89 27 73 3e
       0.07900594 0.10756267 0.19367239 0.2374555
000020 6b e3 07 3e 7a 8d 0e bd 77 51 99 be 67 18 a8 bc
       0.13270347 -0.03480289 -0.29944965 -0.020519448
000030 66 ff fb 3d 24 40 ff 3c 31 96 4a 3e 15 e7 70 3e
       0.12304573 0.031158514 0.19783856 0.23525651
000040 9e aa ed 3d 14 d8 4f 3e 66 e6 ff bd 55 ed 2c 3e
       0.11604808 0.20297271 -0.12495117 0.1688741
000050 10 fb 4d 3e 3b ea 18 3e 13 6e 67 3d fe e7 11 bd
       0.20115304 0.14933102 0.05650146 -0.035621636
000060 52 17 7e 3e 42 fa 3e 3e 88 09 c7 3c 4d bb 0d bd
       0.24813583 0.18650153 0.024296537 -0.034602452
000070 8b 97 67 be 8b 47 0e 3e 5d b4 f0 bd d0 9a 86 3e
       -0.22616403 0.13894479 -0.117531516 0.26289988
000080 45 a5 79 3e b1 ac f0 3d fd b3 86 3e 6d 8c 51 bc
       0.24379452 0.11751688 0.26309195 -0.012789828
000090 65 dc 67 be 4c b8 84 3e 99 00 ed 3d 81 a8 19 3e
       -0.22642668 0.25921857 0.115723796 0.15005685
0000a0 8d 09 b9 3d 91 07 af bd 0d c2 7a 3e 7f fd 59 3d
       0.09035025 -0.08546365 0.24488087 0.05322027
0000b0 30 3b 1b be 4d 18 3e 3d 45 f9 3c 3e 45 bb 30 bd
       -0.15159297 0.046409894 0.18454464 -0.043147344
0000c0 a2 06 d0 3d f7 8c 75 3e 22 a2 df bd a3 f7 36 3e
       0.10157515 0.23979555 -0.10919596 0.17867903
0000d0 a0 ea 63 be 06 ba 60 be e9 cf 68 3e 82 bb 3b 3e
       -0.22257471 -0.21945962 0.22735561 0.18333247
0000e0 74 28 bd 3c 58 61 03 3e fc 07 82 3e 50 4e ab 3d
       0.023090579 0.12830102 0.25396717 0.08364546
0000f0 96 3b 99 3d 69 b1 19 be e7 01 47 be 80 47 3f 3d
       0.07482068 -0.15009083 -0.1943432 0.046699047
000100 f0 77 53 3e 62 9e 02 3e 27 a8 f3 bc b5 3a 4b 3e
       0.20651221 0.12755731 -0.029743267 0.19846614
000110 11 db 8f bd 08 54 92 bc 4c d5 78 bb 01 26 69 be
       -0.070242055 -0.017862335 -0.0037968932 -0.22768404
000120 97 d0 5b 3e cd 89 5f be ad f6 04 be 8d cc 03 3e
       0.2146629 -0.2182991 -0.12984724 0.12870999
000130 28 e9 2b be bb 0b 8e 3e 2d 4f 00 be ba e1 3b be
       -0.16788161 0.27743325 -0.12530203 -0.18347827
000140 ad 56 06 3e 7e 6d 5c 3e 87 e4 87 3e 08 9d fa 3d
       0.13119002 0.21526143 0.2654154 0.122369826
000150 84 89 0b 3e dd 9e 5f 3d e9 49 2b 3e eb 03 12 3e
       0.13626677 0.054594863 0.16727413 0.14259307
000160 58 ce 81 be ed d6 30 3d 2e 6b f8 3c c9 9a 54 be
       -0.2535274 0.04317372 0.030324545 -0.20762171
000170 78 4c 76 be 5c bd 97 bc dc 39 61 be 13 da 38 3e
       -0.24052608 -0.01852291 -0.21994728 0.18051939
000180 fa 6a e5 bd 72 54 d1 bd ab 68 7e 3e f7 8a 36 3e
       -0.11202045 -0.10221185 0.24844615 0.17826448
000190 05 81 13 be 49 1d 41 3e f9 f1 1b be f0 c7 42 be
       -0.14404686 0.18858828 -0.15229024 -0.19021583
0001a0 0c 8a 1d 3e ba 67 22 3e ac ca c3 3d 39 50 34 3e
       0.15384692 0.15859881 0.09560141 0.17608728
0001b0 95 ba 06 3e 13 ad 1c 3d 87 f2 9f bd 9b c3 29 3e
       0.13157113 0.038250994 -0.0780993 0.16578524
0001c0 5f 1a 4e 3d 7d 24 28 3e d0 21 79 3d e6 c3 e1 bc
       0.05031812 0.16420169 0.06082326 -0.027559232
0001d0 a9 cf 3c 3e 33 e9 6f 3e bf 8b 60 3d a9 5d 89 3d
       0.18438591 0.23428802 0.054820772 0.067073174
0001e0 05 e9 93 3d f4 5d 27 3e a6 c6 01 3e 90 0c 80 3e
       0.07222179 0.16344434 0.12673435 0.25009584
0001f0 28 e9 de bd a6 63 00 3b 1b be 78 3e ff cd f4 bc
       -0.10884315 0.0019590645 0.2429127 -0.029883383
000200 8b af fd bb b8 c6 3a 3e c1 4e 39 3e ee be db 3d
       -0.0077418736 0.18239868 0.18096448 0.10729776
000210 e9 37 3e 3e dd 27 2f bc 71 b9 2b 3e 7e 0a 0a 3e
       0.18576016 -0.0106906565 0.16769959 0.13480565
000220 22 77 4f 3e 77 64 54 be 2d 11 56 bd a2 58 e6 bd
       0.2026029 -0.2074145 -0.052262474 -0.11247374
000230 91 9a 5d 3e 88 86 4e 3e d9 92 45 3d 65 35 23 3e
       0.21640994 0.20168507 0.048235748 0.15938337
000240 37 b9 56 be 5a f2 43 3e 8d 0e a5 3d 87 6b 88 3e
       -0.20969091 0.19135419 0.08059416 0.26644537
000250 d3 59 46 be e7 d9 6a 3c 2a f9 3f be 18 cd 63 3e
       -0.19370203 0.0143341785 -0.18747392 0.22246206
000260 9c 6e 33 be f6 d2 1d 3e 2c d8 35 be d9 0b 69 be
       -0.17522663 0.15412506 -0.17758244 -0.22758426
000270 40 1b 70 be 84 5d 25 3d 43 19 53 be 9c e6 29 bc
       -0.23447895 0.040372387 -0.20615105 -0.010369923
000280 ae 0b cc bc 79 78 49 be ec eb 9d bd 39 f9 8d bd
       -0.024907913 -0.19674863 -0.07711014 -0.06932301
000290 10 9a 25 3d 3c f1 29 bd f8 8a 9f bc fc c2 f4 3d
       0.04043013 -0.041489825 -0.019475445 0.11951253
0002a0 6b 6b f1 bd b4 e7 4f 3d d8 1c a8 3c f2 cb bd bd
       -0.117880665 0.05075808 0.020521566 -0.09267415
0002b0 44 2b d5 3d 68 20 f1 bc de f6 ef bd 1f 8e f3 bd
       0.10408643 -0.029434398 -0.11717008 -0.11892342
0002c0 80 2b 53 3b 60 e2 96 3b f7 9a ed bd 80 b6 2b 3d
       0.0032221973 0.0046046227 -0.11601823 0.041922092
0002d0 df 8c 07 be 20 31 56 bc 40 07 58 3c dc 9f 99 bc
       -0.13237332 -0.013073236 0.013185322 -0.018752985
0002e0 d0 5c 6e bc 98 14 b4 3c 76 39 9e bd a6 15 b2 3d
       -0.014548495 0.021982476 -0.077258036 0.08695535
0002f0 78 15 ef bc 80 7c e6 3c dc b3 ca bc 8b e4 d8 bd
       -0.029185042 0.028135538 -0.024743967 -0.10590466
000300 54 d2 c8 bc 10 06 c0 bc fe 9d 69 bd 4c f1 9a bc
       -0.024514355 -0.02344039 -0.05703544 -0.018913887
000310 08 a0 99 3c 39 1c f5 bd 68 b7 dd bd a2 31 c3 3d
       0.018753067 -0.11968274 -0.108259976 0.09530951
000320 20 bc 07 3e 7a 9b 69 bd 18 71 ef 3d 34 ba c3 3d
       0.13255358 -0.05703304 0.11691493 0.09557
000330 e4 4b d9 3d 3f 25 01 be a2 2b 8f bd 48 69 b7 3c
       0.10610178 -0.12611865 -0.06990744 0.02238907
000340 76 cd 8c bd 96 51 3f bd 24 a4 8d 3d 6c 9d 65 3d
       -0.06875126 -0.046708666 0.06916073 0.056058332
000350 28 2c 59 bd c8 39 ce bc 48 fb 1f 3d d2 3c 9c bd
       -0.053020626 -0.025174037 0.039058 -0.07628788
000360 22 45 c5 bb 9f 5c 38 3e 08 3d 4a 3e 78 79 9d 3e
       -0.006020204 0.18004082 0.19749844 0.30756736
000370 ad a4 0e be dc 86 49 be b8 b1 49 3e 7a ef b0 3b
       -0.13930006 -0.19680351 0.196967 0.0053996416
000380 9d 5f d1 3d 2f 7b 85 3e 54 af 8b 3e 5d eb 56 3a
       0.10223315 0.26070544 0.27282202 0.0008198524
000390 db 33 53 3e a5 e4 68 3e 61 3d 93 bd 16 db 09 3d
       0.2062525 0.22743471 -0.071894415 0.033656202
0003a0 cd 77 11 3e 03 17 2e be 2e 49 b8 3d 31 a7 c1 3d
       0.14205857 -0.17000966 0.08998333 0.09455717
0003b0 d9 43 3c 3d 71 ba 5d be fd da 59 be a1 a9 4d 3e
       0.045963142 -0.21653153 -0.21274944 0.2008424
0003c0 98 6e 33 be 26 4a 0a 3e bc ee 71 3e 95 58 fd 3d
       -0.17522657 0.13504848 0.23626226 0.12370411
0003d0 4b 47 93 3d ec 4e 19 3d bc 11 05 3e 75 91 54 be
       0.071913324 0.03742878 0.12995046 -0.20758612
0003e0 77 8a 81 bd ad ff 0c 3e 0b 08 62 be c7 b7 62 3e
       -0.06325238 0.13769408 -0.2207338 0.22140418
0003f0 a8 a0 6a 3e 35 4a fb bd 52 1a 44 3e 11 05 bb bd
       0.22912848 -0.12270013 0.19150665 -0.09131826

conv2.bias f4 [12]
000000 fd 90 ca bc db 12 4e 3e 28 73 02 3e ac 91 00 be
       -0.024727339 0.2012438 0.12739241 -0.1255557
000010 d2 6a d2 3d 5b d0 b5 3d d5 3f 6a 3d 51 81 2e 3e
       0.102742806 0.08877631 0.05718978 0.17041518
000020 e2 d6 b6 3d b5 72 4b 3e e2 8d 8a bc 2b 65 69 3e
       0.089277044 0.19867976 -0.016913358 0.22792499

fc1.weight f4 [12, 924]
000000 d5 68 44 3d e6 fc e1 bd 23 aa e7 bd 35 eb 1f 3d
       0.047951538 -0.11034565 -0.11311748 0.03904267
000010 d3 3d e0 3d 4a 89 27 be 2f 4a 26 be 6f af bb bd
       0.10949292 -0.16360965 -0.16239236 -0.09164321
000020 44 88 12 bd d4 85 b0 3c 6b 3c fa 3d 66 08 b0 3d
       -0.035774484 0.02154819 0.12218555 0.08595352
000030 d2 4c 3d be d9 60 05 be c0 f9 b2 bd 77 3f c0 bd
       -0.18486336 -0.13025226 -0.08739042 -0.09387105
000040 1a b0 83 3d e7 c6 75 3d a0 55 00 be f6 36 19 be
       0.06430073 0.06000414 -0.12532663 -0.14962372
000050 51 58 1a 3e 28 36 16 be 55 6c d1 3d 4e 1c dd 3d
       0.15072753 -0.14669096 0.10225741 0.10796414
000060 6f 28 a0 bd 96 0d ff bd ee 2f 40 3e 7e 2b 98 3d
       -0.07820212 -0.12453763 0.18768284 0.074301705
000070 ab 82 03 3e 76 82 15 3e 2f 74 37 3d c6 b0 47 be
       0.12842815 0.14600548 0.044788536 -0.19501027
000080 35 a3 e0 3d 34 93 2f 3e 48 87 25 be b9 58 03 3e
       0.10968629 0.17145997 -0.16164887 0.12826814
000090 3c f2 48 3d 73 36 3f be 36 aa 0d be fd a3 0f 3e
       0.049059138 -0.18673114 -0.13834462 0.140274
0000a0 fc 2a e8 bd 05 67 25 be 00 48 da 3d ed a0 1c be
       -0.113363236 -0.1615258 0.10658264 -0.15295763
0000b0 87 15 fd bd be 87 ab 3d 23 62 9b 3d 06 96 19 be
       -0.12357622 0.083755 0.075870775 -0.14998636
0000c0 00 ae 80 bd 7d ba 83 bb 9e 2a e7 bd c2 c3 ec 3d
       -0.06283188 -0.004020034 -0.112874255 0.11560775
0000d0 1b e9 82 3d 7d b1 87 bd 25 4a 8e bd 49 e1 b7 bd
       0.063921176 -0.0662565 -0.06947736 -0.089785166
0000e0 8d fa ee bd d2 5c 17 3c d8 6f e5 3c c4 89 f5 bd
       -0.116688825 0.009238439 0.028007433 -0.11989167
0000f0 1f 5e 7f bd c3 eb 8e bd 13 88 b9 bb 07 d9 c7 bd
       -0.06234562 -0.06978562 -0.0056619733 -0.097581916
000100 55 4e 83 3d ca a4 cb bc c0 d9 f2 bd d2 40 ad bd
       0.06411425 -0.024858851 -0.11857939 -0.08459629
000110 b7 7e 89 3d 63 fe 92 3d 46 b2 b7 3d c2 d9 14 bc
       0.06713622 0.07177427 0.0896955 -0.009085121
000120 6e 64 c9 bb a9 0b d9 bd 26 3d 9f 3c 96 84 f9 bb
       -0.0061460054 -0.10597927 0.019438338 -0.0076146824
000130 9f 34 89 3d c8 63 04 be 72 f2 c8 3d 1d 45 bb bd
       0.0669949 -0.12928689 0.09811868 -0.09144042
000140 db 73 9a bc ea 58 01 be 1e e1 0f 3e 98 92 d3 3e
       -0.018854072 -0.12631574 0.14050719 0.4132278
000150 1d e3 80 3d 7c ec 02 3e 22 01 23 3d 0c 4f 0a be
       0.062933184 0.12785524 0.039796002 -0.13506716
000160 eb f9 91 bc d7 5d fb 3d dc 27 2f be 6f 3d d6 3d
       -0.017819365 0.12273758 -0.17105049 0.10460936
000170 8a 9f 1f be 62 41 e5 bd 31 f4 aa bd 8c 69 30 3e
       -0.15588203 -0.111941114 -0.08347357 0.17227763
000180 4e a9 f6 bd a8 09 c2 bd 40 f1 02 3e c4 ed 7b bd
       -0.12044011 -0.09474498 0.12787342 -0.061506048
000190 a9 f2 2e be fa c0 07 3e 8f 37 bf 3c 5c c1 3b be
       -0.17084755 0.13257208 0.023341922 -0.1833548
0001a0 c0 8e 31 3d 59 4b 3c be d5 22 ba bd 63 78 48 3e
       0.043349028 -0.18388118 -0.09088675 0.19577174
0001b0 75 3f 20 3e a0 fb 4a be 39 c0 0c be cc 2a 0a 3e
       0.15649207 -0.1982255 -0.13745202 0.13492888
0001c0 44 e1 e6 bd 85 0f e1 3d 15 21 20 3e 3c fd 15 3e
       -0.11273435 0.10989288 0.1563762 0.14647382
0001d0 c2 2a 08 be 0c 09 9e 3c 86 9c 06 3e 14 ff 9e bd
       -0.13297561 0.019291423 0.13145646 -0.07763496
0001e0 5d 3c f6 3a 98 f3 c9 3d 4f f0 26 be 0b 4d 21 be
       0.00187863 0.09860915 -0.16302608 -0.15752046
0001f0 68 d2 0a 3e 14 79 86 3d dc 83 ef ba 43 30 bb 3c
       0.13556826 0.065660626 -0.001827355 0.022850161
000200 c9 04 fb bd e0 68 14 be 12 fb 99 3d 81 b2 a2 3d
       -0.12256772 -0.14493132 0.07518591 0.07944203
000210 ff a7 b4 3d 6f ad 07 3e 5a a1 ad 3c 39 fe 45 bc
       0.08821105 0.13249753 0.021195102 -0.012084537
000220 b0 ae 5d 3d e5 04 ac 3d 9b 88 2f 3d 0f 6f b0 bd
       0.054121673 0.08399371 0.042854887 -0.08614933
000230 0c 85 78 3d b7 80 83 bd 29 25 43 3d 12 47 7c 3d
       0.06067376 -0.06421035 0.04764286 0.061591215
000240 9c a6 2e 3d 7c 7e 76 bc be 2b a4 bd 24 45 bb 3b
       0.04263936 -0.015044805 -0.08016156 0.0057150293
000250 14 00 df bb 87 ae 9d 3d 26 b9 9c 3c 7b a7 ac bd
       -0.0068054292 0.07699304 0.019131254 -0.08430382
000260 09 9c 9f bd c5 4b fa bc 69 c5 f4 bc 57 63 b7 bd
       -0.07793433 -0.030553708 -0.029879289 -0.089544944
000270 28 e1 f4 3d 6b 0e a1 bd 4d 62 4d 3d c6 d3 2f be
       0.11957008 -0.07864078 0.050142575 -0.17170629
000280 7b e0 1e 3e da 0f c8 bd 8d 86 69 3d 64 62 15 be
       0.1551532 -0.097686484 0.057013083 -0.14588314
000290 c7 cc 22 3e c4 50 1a be 3c 1d e2 3d 5f f3 22 be
       0.15898429 -0.15069872 0.11040732 -0.15913151
0002a0 87 d1 d0 bc 29 4b e8 bd 2c d1 b2 3d f4 dc a2 bc
       -0.025490535 -0.11342461 0.087313026 -0.01988075
0002b0 dd 59 3b 3e bc f7 37 be b6 72 26 3e d6 16 25 3e
       0.18295999 -0.17965597 0.16254696 0.16121992
0002c0 a1 12 27 3e 74 47 9f ba 1c 7b 07 3e f2 d7 cf 3d
       0.163157 -0.0012152032 0.13230556 0.1014861
0002d0 53 ba bd bd a6 93 01 be 62 68 07 3e 5e c3 37 3e
       -0.09264054 -0.1265398 0.13223413 0.1794562
0002e0 35 19 e1 bc 87 78 96 3d 23 e0 08 3d ce ae 18 3e
       -0.02747784 0.073472075 0.03341688 0.14910433
0002f0 d1 83 05 3e 1e f7 05 3e d0 c2 eb bd 4b 7e b8 3d
       0.13038565 0.13082549 -0.11511767 0.090084635
000300 9e 02 25 3e 90 54 c8 3c 01 e7 d8 3d 6c 4c 14 3e
       0.1611428 0.024454385 0.105909355 0.14482278
000310 7b aa 89 3d 46 40 f2 3d 6d 86 ca 3c 9f e7 49 bd
       0.0672197 0.118286654 0.024722302 -0.049293157
000320 ec ce 23 3d b5 cb fd 3d 63 a5 12 be 49 7c 1b bd
       0.039992258 0.1239237 -0.14320903 -0.037960324
000330 cb 5a fc 3d a4 f9 b2 bc 4e 86 f3 bd 90 26 06 3e
       0.12322005 -0.021847554 -0.11890851 0.13100648
000340 6d 39 4e 3d 34 c7 bc 3c 5f 2a 85 3c c1 10 a3 3c
       0.050347734 0.023044206 0.016255556 0.01990545
000350 2c 5b 97 3d 22 e2 9a 3d d5 b3 6e 3d c7 d2 d7 3c
       0.073904365 0.07562663 0.05827697 0.026345624
000360 9c 16 a1 bd 21 a1 86 bd d0 ee 11 bd e3 db 26 3d
       -0.078656405 -0.06573702 -0.03562814 0.040737044
000370 42 ed 39 bc 18 d8 c3 3d cf c0 2a 3d 81 3c 9c bd
       -0.011348071 0.09562701 0.041687783 -0.07628728
000380 df ca 7b bd c7 9a e1 bd 2e d9 83 3d b8 e3 aa 3d
       -0.06147277 -0.110158496 0.06437908 0.08344215
000390 a9 30 a0 bd 2d b2 eb bd 89 30 b8 3c 18 3b 1c bc
       -0.07821781 -0.11508594 0.02248408 -0.009535573
0003a0 e4 79 2f 3c 74 59 12 3c 58 b4 45 bc 96 4e 95 3c
       0.010710213 0.00893246 -0.012066923 0.01822595
0003b0 d0 db 72 bc 0c d6 8d bb bc dd 1e 3c d2 fd 6f bc
       -0.014822915 -0.004328495 0.00969642 -0.014647918
0003c0 1b 9e d2 bc f0 c3 95 3b 2b af 01 bd f0 8c d9 3c
       -0.025710156 0.0045704767 -0.031661194 0.026556462
0003d0 ee e7 e0 bc 39 12 a6 bc 44 cd 4b 3c 14 4a 34 bc
       -0.027454343 -0.020272361 0.012439076 -0.01100399
0003e0 14 cf 41 3c 58 a0 9a 3b 02 51 54 bc e0 8c c3 3c
       0.011829156 0.0047188215 -0.012958767 0.023870885
0003f0 88 59 3b bb 76 55 34 bc 6c dd db bc 14 60 94 bb
       -0.00285873 -0.011006704 -0.02683898 -0.004528055

fc1.bias f4 [12]
000000 be 96 7d bc da 26 2c 3d e7 29 86 bb 66 05 2d 3d
       -0.015477834 0.04202924 -0.0040943506 0.042241476
000010 c6 2a 3a 3c 09 ae c1 3c 23 e1 aa bb 21 3f 45 bc
       0.011362737 0.023642557 -0.0052148267 -0.012038977
000020 f1 f7 e6 bc 1a ed 46 bd 2b 71 e3 bb 96 a4 ce 3c
       -0.0281944 -0.04856596 -0.006940981 0.025224965
