models/digits_classifier.pt (torch, 24027 bytes, 4 tensors)

conv1.weight f4 [6, 1, 3, 3]
00000000: cf90 cdbe a56f b8be f609 e93e 7522 f63e
00000010: cafd 003f 2810 a83e 2fad c33e 13c8 4fbc
00000020: bc3d 013e e2c5 0b3f 786a ef3e dd86 d23c
00000030: 702b 743e ba62 023f 0833 e8be 9d97 01bf
00000040: 78af 063f d511 c4be 942c d33e 1540 81be
00000050: 9c34 e23e b773 9d3e 2e25 0bbf fcf6 7d3e
00000060: 3e28 623e 91dd ec3e e25d 073f 2309 853e
00000070: 2235 b83e 1137 023e e3a2 d6be eb00 ca3e
00000080: f574 c8be 492f a83e 247d d53e 0e59 ab3e
00000090: 5b2d 0a3f 0eeb debe 2ca7 053f fe55 3abe
000000a0: d828 07bf a63c 983e 1b11 803e 6172 0d3f
000000b0: 9fda 9bbd 61b3 923e d622 cc3e 653c 343c
000000c0: f8e9 873e 9513 eebe 3f01 f93e bba5 983e
000000d0: 309a 403e 4d21 0f3e
-0.40149543 -0.36022678 0.45515412 0.48073164 0.5038725 0.32824826 0.38218066 -0.012681979
0.12621206 0.5459882 0.46760917 0.025699073 0.23844695 0.50931895 -0.45351434 -0.5062197
0.52611494 -0.38294855 0.41244948 -0.25244203 0.44180763 0.30752346 -0.54353607 0.24801248
0.22085664 0.46262792 0.5287763 0.25983533 0.35978037 0.12716319 -0.41921148 0.39453825
-0.3915173 0.32848576 0.41697037 0.3346638 0.53975457 -0.43538707 0.5220821 -0.18196866
-0.527967 0.2973377 0.2501305 0.55252653 -0.07610058 0.2865248 0.39870328 0.011000727
0.26545691 -0.46499315 0.48633763 0.29813942 0.18808818 0.13977547

conv1.bias f4 [6]
00000000: 724e 7abd 9db3 093f 23e0 25bd d68e 86bc
00000010: 1881 f23d 27d5 b0bd
-0.061109968 0.53789693 -0.040496957 -0.016425531 0.11841029 -0.086344056

fc1.weight f4 [12, 462]
00000000: 17a7 f73d b42b 68be 7953 84be 7ed5 81be
00000010: 9513 99be fe5e 77be cce7 1dbe 0018 70be
00000020: c745 303e aa44 34be 7f80 49bd 3ba7 fabd
00000030: 322c 2f3e e8d7 80be f249 22be b3cc 42be
00000040: 2833 9b3d 2d72 ab3d 5ff5 753e 630a 5dbe
00000050: a380 14be bef3 a1bd c1cf 0e3e b0b4 453e
00000060: e8d1 5f3e 3442 2d3e c54a 3f3e 9d29 773e
00000070: 9bc4 4a3e a350 8c3e 400a 763e 7d75 9dbe
00000080: e291 52be 588a cf3d 1d56 353e f90a 7a3e
00000090: 3be3 353e 7202 85be 5cb7 a9bd e3e2 2f3e
000000a0: 33ab 82be 23f0 8abe 8888 693e c011 b93d
000000b0: 6dfe 5bbe a423 243e 06fc 3e3e 5f67 253e
000000c0: 3e37 6f3b e18f 9abb a541 be3d 1cc4 01bd
000000d0: 6d60 a33d e787 783d 19c3 27be 3690 2abe
000000e0: f1c6 0ebe 14a5 f03d e1e9 25bc 817f 1abe
000000f0: 4cd3 64be 1ee3 e0bd 527f f1bd 07e3 65be
00000100: bb27 1a3e 5667 063e 9a1b 84be 4a86 34be
00000110: 5831 eabd e0c7 133e 1453 c53d c767 8e3d
00000120: bdb2 883c 6758 3a3c 193e a23d b9a6 f63c
00000130: 2dbe 123e 3f5e f9bd 3833 eabd ff1b 2cbe
00000140: d9fe 37be 67a6 4dbe b54a 11be 2b46 50be
00000150: 244c acbd 0603 d8bd 66d0 03be 54b4 11be
00000160: e982 023e 0d09 63be 0ed8 533e 00a9 3abe
00000170: 71a3 2ebe ed28 4fbe c0a3 963e 4d2e 8cbe
00000180: 1905 57be a15d 27be 9fbf 39be 84c7 3c3e
00000190: ed42 6dbe 5633 03be f47e 583e a139 563e
000001a0: 1693 77be a069 5ebe 9a76 873e 8fbb 4d3e
000001b0: 9cf3 60be 03be 783e 8d82 6c3e 7000 153e
000001c0: 41e1 3fbe 5f91 813e 2de9 753e e3ca 67be
000001d0: c5fd 44be 6b44 523e 4c3e 1e3e d009 1bbe
000001e0: 03b5 bb3d 8166 3c3e a0e1 ffbd fcd5 25be
000001f0: 313e 29be a752 dcbd 3d69 edbd 70a0 1fbe
00000200: 5b19 623d 68d6 ce3d 9a9e 5e3d 3b88 0bbe
00000210: 938d 1bbd b023 09be a2da 47be 1661 9dbd
00000220: 422f be3d 417f 2a3d 9c05 f5bd 1af8 27be
00000230: e42f eebd d8d8 37be 3abd 4fbe d1ec 92bd
00000240: 447b 1cbe 8428 47be cb09 1ebe 244a 0ebe
00000250: d431 39be ed71 0abe e591 febd e1ee 1dbe
00000260: d549 20be 29b9 ecbd 5b53 d93b 748a a0be
00000270: d8c6 9abe 7622 93be e0a7 a3be e302 98be
00000280: 7273 1e3e 344c 29be 4a25 0abe ae51 273d
00000290: 87fc 5e3d 0d58 19be 76d7 31be 264a a7be
000002a0: 3d62 8dbc d4d0 153e d060 4a3e a8e8 433e
000002b0: 380e 483e f9bd 4d3e ea55 7ebe 4dd4 8d3e
000002c0: 441b 563e 19bb 15be 5ce3 47be 1fd8 753e
000002d0: c012 773e 0efd 23be 2047 3e3e b9f0 243e
000002e0: 04b9 2e3e 88e5 e7bc 425b 453e cf1e 87be
000002f0: 138a 3c3e 52f3 7a3e 6b73 41be 207c 5fbe
00000300: 7e94 713e ab99 e4bd afa1 85be d6a9 383e
00000310: da60 853e 6fdd 813d a851 b8bd 3d6a 4c3e
00000320: e5d1 80be 7f1b 45be bfc4 ad3c 3d6d 22be
00000330: 91ac 193e 21f7 0f3d 79aa 843d 657c 97bb
00000340: e0bc 39be db0a 8d3d 7dda 5abe c81b 183e
00000350: a2ce 1cbe c248 9c3d 4008 0fbe 1290 003e
00000360: a79f 1cbe f5c2 36be 7c35 073e 0ed2 28be
00000370: 8f2a ba3d 7499 15be 71a5 233e b3ab 47be
00000380: 1395 1c3e c030 e13d e45c 243d 36ef 9f3d
00000390: d711 9a3d 7a09 3a3d 0d5c fc3d cf71 6bbe
000003a0: e240 5ebe 092d 31be 204d 6ebe 6ea1 44be
000003b0: 6410 38be a016 74be 5cb5 74be ce5e 3bbe
000003c0: c078 0bbe a051 c33d 09d1 7abe aed2 36be
000003d0: a00a 81be 82c9 573e abd6 34be 2239 263e
000003e0: 14c0 6c3e 2f8f 5e3e 7ef3 0cbe 6366 863e
000003f0: 515d d73d b5b6 803e 6e73 46be a46b 38be
0.12092417 -0.22672921 -0.25844935 -0.25358194 -0.29897752 -0.2415733 -0.15420455 -0.23446655
0.17214118 -0.17604318 -0.04919481 -0.12238928 0.17106703 -0.25164723 -0.1584852 -0.19023399
0.07578117 0.08371387 0.24019383 -0.21585993 -0.14502196 -0.07907818 0.1394644 0.19307208
0.21857417 0.16919786 0.18680866 0.24136968 0.19801562 0.2740527 0.24027348 -0.307537
-0.20563462 0.10133809 0.17708631 0.24418248 0.17762463 -0.25978428 -0.08286926 0.17176394
-0.2552124 -0.27136335 0.22805989 0.09036589 -0.21483774 0.16029221 0.18650827 0.16152714
0.0036501433 -0.0047168587 0.092898645 -0.031681165 0.07977376 0.06067648 -0.16383018 -0.16656575
-0.13943078 0.11750236 -0.010126562 -0.15087701 -0.22346228 -0.10980819 -0.117918625 -0.22449885
0.15054218 0.13125357 -0.25802308 -0.17629352 -0.11435193 0.14431715 0.096349865 0.06953388
0.016686792 0.011373616 0.079220004 0.030108796 0.14330359 -0.12176179 -0.114355505 -0.16807555
-0.1796831 -0.20083009 -0.14188655 -0.20339267 -0.0841296 -0.10547452 -0.12872466 -0.14228946
0.12745251 -0.22171421 0.20687887 -0.18228531 -0.17054535 -0.20230456 0.29421806 -0.27379075
-0.20998038 -0.1634431 -0.18139504 0.18435484 -0.23170061 -0.12812552 0.21142179 0.20920421
-0.24177203 -0.2171998 0.26457673 0.20091079 -0.2196793 0.24291234 0.23096676 0.14550948
-0.18738271 0.25306222 0.24014731 -0.22635989 -0.1923743 0.20533912 0.15453452 -0.15140462
0.091653846 0.18398477 -0.124942064 -0.1619491 -0.1652763 -0.10757952 -0.11592338 -0.15588546
0.055199962 0.100994885 0.054350473 -0.13626187 -0.037976813 -0.1339252 -0.19516996 -0.07684533
0.092863575 0.041625265 -0.119639605 -0.16403237 -0.11630228 -0.17953813 -0.20287028 -0.071740754
-0.15281397 -0.19449049 -0.15433423 -0.1389547 -0.18085414 -0.13520022 -0.12430171 -0.15423156
-0.15653165 -0.11558754 0.006632251 -0.3135563 -0.3022983 -0.2873723 -0.31964016 -0.29689702
0.15473726 -0.16532975 -0.13490787 0.04084938 0.054440048 -0.14974995 -0.17367348 -0.32673758
-0.017258758 0.14630443 0.19763494 0.1913172 0.19536674 0.20092 -0.24837461 0.27701035
0.20908839 -0.14622153 -0.19520324 0.24008225 0.24128246 -0.16014501 0.1858182 0.16107453
0.17062765 -0.028307691 0.19273093 -0.26390693 0.18412046 0.24506882 -0.18891685 -0.21824694
0.23591802 -0.11162122 -0.26099917 0.18033537 0.26050454 0.06341063 -0.0899995 0.19962402
-0.25160137 -0.1924877 0.02121198 -0.15861984 0.15007235 0.03514779 0.064778276 -0.0046229833
-0.18138456 0.06886836 -0.21372409 0.14854348 -0.15313199 0.07631065 -0.13967991 0.12554958
-0.15295278 -0.17847808 0.13203996 -0.1648638 0.09090149 -0.14609319 0.1598108 -0.19499092
0.15291242 0.109956264 0.04012765 0.07809298 0.07522934 0.045419194 0.12322245 -0.22992633
-0.21704438 -0.17302336 -0.23271608 -0.19202206 -0.17975003 -0.23836756 -0.23897308 -0.18297884
-0.13620281 0.09537053 -0.24493803 -0.17853805 -0.2520342 0.21072963 -0.17660014 0.16232732
0.23120147 0.21734308 -0.1376476 0.2624999 0.105158456 0.25139394 -0.1937997 -0.18009812

fc1.bias f4 [12]
00000000: 7da4 05be a6ef f63c 9c8d 8abd 9582 fbbd
00000010: 50f5 bdbd 5122 2ebe accd 0fbe b792 5ebd
00000020: 8b8f 96bd d629 81bd 6c6f ce3d 9ba1 173e
-0.13051029 0.03014357 -0.06765291 -0.12280766 -0.09275305 -0.17005278 -0.14043301 -0.054339137
-0.073515974 -0.06306808 0.10079846 0.14807741
